lob_fairy_predictorium/example_solution/baseline.onnx (onnx, 279656 bytes, 11 tensors)

linear.weight f4 [2, 64]
0.12658018 0.11262054 0.042208828 0.0027947538 -0.14467357 -0.041620817 -0.083495714 0.1436531
-0.08494023 -0.07127032 0.08231967 -0.02945537 -0.0069219447 0.20820054 0.12062403 0.12993516
-0.08524846 -0.012377435 -0.08083288 0.008048533 0.23831728 -0.08318759 -0.055938113 0.120949805
-0.102042235 0.07418605 0.12394587 0.10827765 -0.108829126 0.011208383 0.12681574 0.15959837
0.11341397 -0.08808984 0.072278656 -0.07835782 0.1732584 -0.122400075 0.17463242 0.10011239
-0.0062816325 -0.16792484 -0.11778302 0.026319187 -0.0667019 -0.00596417 -0.108088434 0.051818285
0.12860027 0.03375945 0.061614115 0.112081 0.04230907 -0.21380632 0.043496963 0.020861901
-0.032479417 -0.075912535 0.08951699 -0.14183697 -0.1555639 0.083925165 -0.16513534 0.05898957
-0.018742314 0.06207098 -0.05816443 0.06821091 -0.08796956 -0.05171045 0.050141733 0.009777363
0.0693084 0.09465109 0.04329975 -0.042860556 0.030105155 0.14375305 0.02783211 0.08417314
-0.120366946 0.06084089 -0.03745289 -0.12757179 0.05168292 0.05324167 -0.04366505 -0.047253083
-0.083995536 0.09602129 -0.04616421 -0.046866253 -0.10095851 -0.12555651 0.1408648 0.054910332
0.07611614 0.0492271 0.04403249 -0.04871749 0.073734485 -0.15834568 0.05614861 -0.11758563
-0.007973069 -0.1875333 0.0025587063 0.14076683 0.13720956 0.07011595 0.06757281 -0.09521814
0.1281681 0.096634574 -0.00035796806 0.05594304 -0.02533882 0.015854595 0.035231985 0.06472465
0.056987256 -0.1405269 0.07559914 -0.06787731 -0.06923752 -0.0654199 -0.12478693 0.09386026
00000000: 3c9e 013e 99a5 e63d 2ae3 2c3d 3028 373b
00000010: 4f25 14be 977a 2abd cdff aabd cc19 133e
00000020: 25f5 adbd 2cf6 91bd 3797 a83d 634c f1bc
00000030: 7bd1 e2bb 8632 553e bb09 f73d b90d 053e
00000040: bf96 aebd baca 4abc b68b a5bd ffdd 033c
00000050: 7209 743e 415e aabd 5d1f 65bd 88b4 f73d
00000060: 85fb d0bd dbee 973d 55d7 fd3d acc0 dd3d
00000070: cee1 debd 5ea3 373c fcdb 013e c16d 233e
00000080: 9545 e83d 7268 b4bd d506 943d 117a a0bd
00000090: a66a 313e e4ac fabd d7d2 323e ba07 cd3d
000000a0: 27d6 cdbb 7df4 2bbe 3938 f1bd 569b d73c
000000b0: 019b 88bd 166f c3bb 785d ddbd 693f 543d
000000c0: caaf 033e 5947 0a3d 155f 7c3d b98a e53d
000000d0: 464c 2d3d 0bf0 5abe df29 323d 94e6 aa3c
000000e0: 2309 05bd 0878 9bbd af54 b73d b63d 11be
000000f0: 254c 1fbe f5e0 ab3d 3d19 29be 0c9f 713d
00000100: 7b89 99bc 243e 7e3d d33d 6ebd 29b2 8b3d
00000110: 6229 b4bd 56ce 53bd 6b61 4d3d 3c31 203c
00000120: 90f1 8d3d 6ed8 c13d 145b 313d 8d8e 2fbd
00000130: 169f f63c 0034 133e 2a00 e43c f862 ac3d
00000140: f282 f6bd 4c34 793d 3468 19bd 2ea2 02be
00000150: 78b1 533d f013 5a3d 20da 32bd 738c 41bd
00000160: da05 acbd cfa6 c43d af16 3dbd d4f6 3fbd
00000170: 56c3 cebd e391 00be dd3e 103e a8e9 603d
00000180: c7e2 9b3d 5ba2 493d 6a5b 343d fe8b 47bd
00000190: 1b02 973d 5f25 22be 16fc 653d bcd0 f0bd
000001a0: 7aa1 02bc bb08 40be f8af 273b 2e25 103e
000001b0: aa80 0c3e f498 8f3d 9d63 8a3d ba01 c3bd
000001c0: 803e 033e 59e8 c53d a9ad bbb9 8724 653d
000001d0: 5b93 cfbc 7fe1 813c 6a4f 103d 5b8e 843d
000001e0: 786b 693d 49e6 0fbe b9d3 9a3d 4203 8bbd
000001f0: 67cc 8dbd defa 85bd 4a90 ffbd cf39 c03d

linear.bias f4 [2]
0.012317905 0.01799921
00000000: 0ad1 493c 1473 933c

onnx::GRU_254 f4 [1, 192, 32]
0.04641678 0.014701318 -0.090563536 0.026273977 -0.034904942 -0.16040824 -0.06592385 0.047948856
0.037074756 0.035119478 -0.17709273 -0.041825894 0.04654882 -0.09700594 0.041595086 -0.023938257
0.020364972 0.06771363 0.10449475 -0.044115003 0.22118232 0.0031285237 -0.033364266 0.09280796
-0.19460812 0.06939153 0.05696876 0.047435325 0.096409336 -0.04751022 0.056593727 0.14003842
-0.072052434 0.070080645 0.03277429 0.08696819 0.10636223 0.1889205 -0.018140273 -0.07588456
0.31136435 -0.05894932 0.15149416 -0.10359622 0.041575287 0.13523567 0.14402919 -0.14011757
0.18827501 0.1121596 -0.029052725 -0.13248199 0.06307317 0.14728282 -0.11470821 -0.051547516
0.03867187 0.049531482 0.043187585 0.08834192 -0.018707769 -0.0072729425 -0.05659219 -0.066878684
-0.042649187 0.03870845 0.053999897 -0.026298914 0.1696155 0.1047113 0.06548181 0.06266157
0.012300646 -0.016191822 0.077515125 0.10642921 0.12190462 -0.070438765 0.1809767 -0.02456024
0.09593947 0.106313705 0.077737056 0.061902132 -0.06631358 0.2142425 -0.031910077 0.013519595
0.016088523 -0.116300814 0.05827352 0.007320951 0.11658177 -0.06703401 0.13190326 0.1874443
0.042053822 0.13887867 -0.021800518 -0.19883542 0.14798857 0.02876091 -0.03515519 -0.048039645
-0.047240943 -0.064008534 0.08983268 0.13119039 0.17106244 0.007987531 -0.12895067 0.033155844
-0.085148364 -0.117337 0.12941088 -0.003906914 0.1130992 -0.060307026 -0.09918242 0.0041256403
0.025903277 0.17077711 0.05646363 0.00020711 -0.002981197 -0.07362072 0.08407986 0.03000658
-0.029681915 0.031872064 -0.15519188 -0.033963807 -0.017773852 0.0026634273 -0.12520835 -0.0176841
-0.016709095 0.02612129 -0.14333066 0.19376728 -0.20471163 -0.009853433 -0.08223984 -0.13739549
0.061076067 0.056473598 0.09281909 -0.08411923 -0.0071621006 0.07615741 0.055341884 0.09647278
-0.078688346 -0.13669004 -0.025630469 0.03943513 -0.0025540257 0.0088115325 0.082938865 0.1989081
0.047585674 -0.040684123 0.0065099522 -0.050145265 0.046005253 0.08606799 -0.056552682 0.06634791
-0.23665409 -0.13252404 -0.008923258 0.13048817 0.15963912 -0.11438984 0.0012442686 0.0406654
-0.07052353 -0.0045939283 0.029544467 -0.07184419 0.1571446 -0.24222718 -0.0055221063 -0.029536124
-0.12594144 -0.004307413 0.09298481 0.05019295 0.15461692 0.044443466 0.062062707 0.027052842
0.052878927 -0.031189326 0.113109864 -0.1406007 0.04354713 -0.14613263 -0.044433996 -0.13183996
-0.054245617 0.01602554 -0.06255929 -0.029874004 0.10633153 -0.24378414 0.058947776 0.034906488
-0.114305735 0.10724214 0.10445674 -0.22420259 -0.02929071 -0.03856219 0.13840653 -0.0087328395
0.06331298 -0.0029112548 -0.08674813 -0.10886285 0.1211741 0.081111155 0.10730451 0.044222545
0.120019324 0.06704062 0.073365204 -0.20986468 -0.086167924 -0.115469046 -0.04109567 -0.014508522
-0.2323025 0.000992926 -0.16116415 0.08035925 0.02094583 -0.18563564 0.0068207015 0.044342417
-0.18703558 -0.026956996 0.016588373 -0.008961431 -0.11702759 -0.10499387 -0.017662281 0.07534105
0.069768935 -0.024353223 -0.17942601 -0.12754151 0.030163411 -0.050689023 -0.0035814357 -0.08328525
00000000: 861f 3e3d ccdd 703c 6079 b9bd 863c d73c
00000010: 7cf8 0ebd 0f42 24be 1503 87bd 0566 443d
00000020: b3db 173d 71d9 0f3d cc57 35be a151 2bbd
00000030: faa9 3e3d 0dab c6bd 9c5f 2a3d 2a1a c4bc
00000040: 71d4 a63c 72ad 8a3d 5801 d63d efb1 34bd
00000050: 9e7d 623e eb07 4d3b f8a8 08bd 1a12 be3d
00000060: 5a47 47be 251d 8e3d 1358 693d 8b4b 423d
00000070: 4272 c53d 149a 42bd d3ce 673d 3b66 0f3e
00000080: 3a90 93bd 7186 8f3d 553e 063d 611c b23d
00000090: 71d4 d93d 6074 413e e99a 94bc 5d69 9bbd
000000a0: 266b 9f3e d874 71bd 4921 1b3e 412a d4bd
000000b0: d94a 2a3d 387b 0a3e 637c 133e fb7a 0fbe
000000c0: 2acb 403e efb3 e53d fbff edbc 5ca9 07be
000000d0: 822c 813d 4fd1 163e 23ec eabd 7d23 53bd
000000e0: 6566 1e3d 86e1 4a3d 77e5 303d 9cec b43d
000000f0: 0941 99bc dd51 eebb 36cd 67bd b1f7 88bd
00000100: eab0 2ebd c08c 1e3d ff2e 5d3d d270 d7bc
00000110: b0af 2d3e e172 d63d 541b 863d b654 803d
00000120: a688 493c b6a4 84bc 40c0 9e3d 8ff7 d93d
00000130: 21a9 f93d 3342 90bd f551 393e 8e32 c9bc
00000140: ea7b c43d 00bb d93d 9b34 9f3d 178d 7d3d
00000150: 6acf 87bd 6362 5b3e 24b4 02bd 4b81 5d3c
00000160: 14cc 833c 1f2f eebd 37b0 6e3d 97e4 ef3b
00000170: 6cc2 ee3d 2149 89bd a611 073e 66f1 3f3e
00000180: a140 2c3d 3636 0e3e 0097 b2bc 839b 4bbe
00000190: 518a 173e 009c eb3c e3fe 0fbd 38c5 44bd
000001a0: b87f 41bd e816 83bd 32fa b73d c656 063e
000001b0: fe2a 2f3e 22de 023c a50b 04be 6cce 073d
000001c0: 4462 aebd 624e f0bd 4984 043e 9205 80bb
000001d0: 8ea0 e73d 8004 77bd 2720 cbbd 6130 873b
000001e0: 1c33 d43c 32e0 2e3e 6846 673d ab2b 5939
000001f0: 3060 43bb 76c6 96bd 1032 ac3d 5cd0 f53c
00000200: 7d27 f3bc 488c 023d 9fea 1ebe a21d 0bbd
00000210: 789a 91bc e58c 2e3b 9e36 00be 3fde 90bc
00000220: 83e1 88bc 51fc d53c 46c5 12be ee6a 463e
00000230: ed9f 51be 4b70 21bc 5c6d a8bd 67b1 0cbe
00000240: e62a 7a3d dc50 673d ef17 be3d b446 acbd
00000250: 0eb0 eabb 6bf8 9b3d 2cae 623d 8593 c53d
00000260: 5b27 a1bd 79f8 0bbe fdf6 d1bc bb86 213d
00000270: 7161 27bb 3f5e 103c dadb a93d 91ae 4b3e
00000280: 32e9 423d 65a4 26bd 7051 d53b 1f65 4dbd
00000290: 0170 3c3d 6a44 b03d c9a3 67bd 6ae1 873d
000002a0: 7355 72be 62b4 07be db32 12bc b19e 053e
000002b0: 7078 233e 3845 eabd ba16 a33a c390 263d
000002c0: a46e 90bd aa88 96bb 3d07 f23c 0c23 93bd
000002d0: 84ea 203e 670a 78be c9f2 b4bb bef5 f1bc
000002e0: cbf6 00be 3325 8dbb d26e be3d 1f97 4d3d
000002f0: e653 1e3e 5a0a 363d 7735 7e3d ec9d dd3c
00000300: 9397 583d c280 ffbc 25a6 e73d a1f9 0fbe
00000310: 7a5e 323d cba3 15be 6c00 36bd 0e01 07be
00000320: a730 5ebd fe47 833c 161f 80bd 54ba f4bc
00000330: 58c4 d93d 8da2 79be 3973 713d 1bfa 0e3d
00000340: 2019 eabd c4a1 db3d 6aed d53d 5d95 65be
00000350: 12f3 efbc 63f3 1dbd 71ba 0d3e 2f14 0fbc
00000360: 3caa 813d c0ca 3ebb 01a9 b1bd 7cf3 debd
00000370: 202a f83d 9b1d a63d 78c2 db3d b322 353d
00000380: b1cc f53d 984c 893d 7f40 963d c4e6 56be
00000390: cf78 b0bd 097b ecbd ef53 28bd 27b5 6dbc
000003a0: b5e0 6dbe 1125 823a 3708 25be 6493 a43d
000003b0: 9796 ab3c 4517 3ebe 3180 df3b 65a0 353d
000003c0: 4186 3fbe ebd4 dcbc 57e4 873c f7d2 12bc
000003d0: 29ac efbd 0707 d7bd 7db0 90bc 694c 9a3d
000003e0: 04e3 8e3d 6980 c7bc 74bb 37be 3e9a 02be
000003f0: 4219 f73c 4b9f 4fbd 85b6 6abb 7591 aabd

onnx::GRU_255 f4 [1, 192, 64]
0.044747863 0.03270831 0.068953834 -0.067427546 -0.16643377 -0.03080778 -0.10891538 -0.032585047
0.014607045 -0.15254289 -0.061536003 -0.040735915 0.07754933 0.015249493 0.1415207 -0.047001928
0.028280104 0.019200277 0.0162617 0.0320356 -0.13726264 0.026986513 0.08863617 0.043833237
-0.0024421029 0.09037747 -0.16401152 -0.014557836 0.072670296 0.091330506 0.02676957 -0.07822768
-0.10373245 0.056979213 0.020588418 0.031681158 0.06939678 -0.0692713 0.08209871 0.103046626
0.03296078 -0.008201431 -0.0015289416 -0.06467647 0.12814929 -0.05597494 -0.08773376 -0.0652293
-0.15400411 0.015278648 0.0068066195 -0.006771294 -0.12074358 -0.11892945 -0.09456046 -0.12546194
-0.039492063 -0.08543467 0.10962078 0.13741143 -0.16293174 -0.05338256 -0.09476628 0.13855721
0.05861234 -0.03677255 -0.04585384 -0.14280772 -0.009624355 -0.16059546 -0.05366124 -0.105201155
-0.28506672 0.06458006 0.009730322 -0.06629749 -0.0921584 0.005660652 -0.08189353 -0.0065300344
0.17807755 0.0029875778 -0.14226344 0.16525443 -0.04160075 -0.08865343 0.11476325 -0.06429133
0.09595109 -0.011250608 -0.014860968 -0.0079369275 0.0073340232 0.013902903 0.13136397 0.22018744
0.02670947 0.028898027 -0.11575604 -0.0834653 0.13246135 0.061234612 0.09697283 -0.09988681
0.00897771 -0.041788142 0.043879773 -0.1818823 -0.14061585 0.05880148 -0.048551884 -0.01518062
0.12260469 -0.08818275 -0.12312806 -0.014748903 0.1783235 0.001958811 -0.017856803 0.11549696
-0.04600676 -0.065436095 0.037011504 0.0015746255 0.038898055 -0.059210762 -0.0031738132 0.10657229
0.041468907 0.15717737 0.15959589 0.10417735 -0.22769952 -0.060422998 -0.17369834 -0.010913745
-0.1254906 0.043707695 0.049704976 0.11492108 -0.20678 0.01569449 -0.032025125 0.1209012
0.11200605 -0.014796407 0.18532586 -0.056426153 0.018575074 -0.035681687 -0.059113625 0.07053304
-0.13605392 -0.026175234 -0.08679257 -0.047121402 -0.080431 -0.0509871 0.004098522 -0.07987255
0.12834094 -0.10341952 0.0373784 -0.10061861 -0.029318891 -0.23135579 0.073423594 0.09270589
-0.09751507 -0.00335225 0.051327527 -0.082943104 -0.052640494 0.11078641 -0.061834596 0.09681197
0.011638131 0.0821999 0.033215154 0.04501766 -0.029350244 0.12553565 -0.19000334 -0.017944949
-0.10860601 -0.15705125 0.011737825 0.050912056 0.05760064 -0.063779 -0.06156848 -0.05553426
0.14283384 -0.0903682 -0.07389618 0.08988267 -0.05948541 0.107383944 0.089284025 0.122667015
0.19412592 -0.120625675 -0.009322491 0.023209533 -0.11741324 0.10359825 0.17590481 -0.059738275
-0.05459012 -0.064084806 0.14083889 0.004357159 -0.006626423 0.056504663 -0.048098437 0.04361489
0.13236095 -0.039961822 -0.18852806 0.09546438 -0.04227507 0.07449987 -0.14645417 0.09290165
-0.08496511 -0.06879643 -0.02833139 0.13102835 -0.06661244 -0.013378448 0.06595512 -0.036663223
-0.0814067 0.049807698 0.049420796 -0.055162515 0.08100999 -0.110190004 -0.020648904 -0.08607676
0.012120772 0.11872255 0.0921161 0.035319503 -0.004428538 -0.00073550467 0.15878238 -0.1131914
-0.037922986 -0.14042993 -0.10090905 0.043070544 -0.080650814 0.04571254 -0.12305553 0.053085238
00000000: 8949 373d 26f9 053d ab37 8d3d 7417 8abd
00000010: 9d6d 2abe 9960 fcbc 070f dfbd e677 05bd
00000020: 6352 6f3c 3434 1cbe 2d0d 7cbd b4da 26bd
00000030: 2fd2 9e3d 02d9 793c cdea 103e 1885 40bd
00000040: adab e73c e649 9d3c 4237 853c c337 033d
00000050: 948e 0cbe d212 dd3c e186 b53d 7b8a 333d
00000060: b00b 20bb d317 b93d a3f2 27be fd83 6ebc
00000070: 2ad4 943d 7d0b bb3d db4b db3c d535 a0bd
00000080: ae71 d4bd 0963 693d 0ba9 a83c 1ac4 013d
00000090: e61f 8e3d 1dde 8dbd 5e23 a83d 1c0a d33d
000000a0: e201 073d 4b5f 06bc c466 c8ba 1975 84bd
000000b0: 9139 033e fb45 65bd c2ad b3bd f096 85bd
000000c0: 41b3 1dbe 4b53 7a3c 100a df3b bbe1 ddbb
000000d0: 6948 f7bd 4991 f3bd eaa8 c1bd 1879 00be
000000e0: 6ec2 21bd 5ff8 aebd dc80 e03d 95b5 0c3e
000000f0: 94d7 26be aca7 5abd d314 c2bd f1e1 0d3e
00000100: 7e13 703d d09e 16bd 3cd1 3bbd 303c 12be
00000110: 78af 1dbc 2373 24be e3cb 5bbd b473 d7bd
00000120: 44f4 91be 8d42 843d ee6b 1f3c fac6 87bd
00000130: 8bbd bcbd fe7c b93b ccb7 a7bd e6f9 d5bb
00000140: f659 363e 3dcb 433b 82ad 11be 7538 293e
00000150: 8c65 2abd ee8f b5bd ff08 eb3d 2cab 83bd
00000160: 0182 c43d 7854 38bc 6b7b 73bc e309 02bc
00000170: 3f52 f03b 00c9 633c 4784 063e d178 613e
00000180: d2cd da3c 8ebb ec3c 8111 edbd dbef aabd
00000190: f3a3 073e 25d1 7a3d b199 c63d 7591 ccbd
000001a0: 3f17 133c 0b2a 2bbd 47bb 333d 5b3f 3abe
000001b0: 9afd 0fbe d2d9 703d 57de 46bd 23b8 78bc
000001c0: 2b18 fb3d 2899 b4bd 902a fcbd 62a5 71bc
000001d0: 709a 363e 655f 003b 6e48 92bc ac89 ec3d
000001e0: 9671 3cbd 5c03 86bd 6099 173d aa63 ce3a
000001f0: 9153 1f3d fc86 72bd c0ff 4fbb 9342 da3d
00000200: 4ddb 293d 1bf3 203e 1b6d 233e ef5a d53d
00000210: 102a 69be 1b7e 77bd fadd 31be 90cf 32bc
00000220: 9c80 00be d706 333d 7297 4b3d be5b eb3d
00000230: 23be 53be bb91 803c c72c 03bd 0c9b f73d
00000240: 6e63 e53d a16c 72bc 10c6 3d3e 1c1f 67bd
00000250: c12a 983c f626 12bd 2121 72bd a073 903d
00000260: b851 0bbe 726d d6bc 4ec0 b1bd 5f02 41bd
00000270: 02b9 a4bd d9d7 50bd e54c 863b 3894 a3bd
00000280: cf6b 033e 9dcd d3bd 181a 193d 2111 cebd
00000290: 2c2e f0bc 88e8 6cbe 1c5f 963d 96dc bd3d
000002a0: fbb5 c7bd 6cb1 5bbb d03c 523d 13de a9bd
000002b0: 8f9d 57bd fce3 e23d 4646 7dbd 5b45 c63d
000002c0: dcad 3e3c 6c58 a83d 9d0c 083d 7064 383d
000002d0: ec6f f0bc 6b8c 003e 3c90 42be 4901 93bc
000002e0: d46c debd 0bd2 20be 0250 403c 2989 503d
000002f0: a6ee 6b3d 909e 82bd 3b2f 7cbd e477 63bd
00000300: 0943 123e f612 b9bd e156 97bd 6814 b83d
00000310: f9a6 73bd 1dec db3d 8bda b63d d838 fb3d
00000320: f2c8 463e 980a f7bd 5cbd 18bc eb21 be3c
00000330: 5a76 f0bd 522b d43d 6420 343e 1fb0 74bd
00000340: e499 5fbd e53e 83bd 1238 103e 80c6 8e3b
00000350: 7722 d9bb 6f71 673d de02 45bd 87a5 323d
00000360: a189 073e 02af 23bd 800d 41be d482 c33d
00000370: a028 2dbd 6393 983d 15f8 15be 3843 be3d
00000380: 3002 aebd 25e5 8cbd 3b17 e8bc 4c2c 063e
00000390: 1a6c 88bd 4731 5bbc 7a13 873d 2d2c 16bd
000003a0: 8eb8 a6bd 2803 4c3d 766d 4a3d 17f2 61bd
000003b0: 91e8 a53d 4cab e1bd e427 a9bc 0349 b0bd
000003c0: 3496 463c cf24 f33d 5ea7 bc3d 2fab 103d
000003d0: 451d 91bb e2ce 40ba d997 223e e5d0 e7bd
000003e0: 2255 1bbd ddcc 0fbe 67a9 cebd bd6a 303d
000003f0: 412c a5bd 133d 3b3d 8a04 fcbd e86f 593d

onnx::GRU_256 f4 [1, 384]
-0.1485134 0.0976863 0.05360977 -0.08401808 0.013909903 0.10730342 -0.089895025 -0.0020588
-0.01031448 0.040010467 0.104717225 -0.09565308 -0.1441362 -0.08600634 -0.010860151 0.05617014
-0.10956281 -0.04775868 -0.0021100957 -0.013092662 0.033503022 -0.0136661185 -0.13041987 -0.18867505
-0.06530999 0.029705282 0.06915521 -0.13469855 0.14068696 0.08697163 -0.11404531 0.044385158
-0.009689763 0.13193841 -0.019864386 -0.034857277 0.0416673 -0.19306268 0.10227643 -0.13304636
-0.07411298 -0.03162806 -0.16076611 -0.02562655 -0.0744404 -0.08323496 0.017012184 -0.1524747
0.04406142 -0.02129858 0.06697577 -0.00832667 -0.13781066 -0.004669852 -0.12038299 0.094199374
0.0030293677 -0.12777755 0.06757029 -0.16725878 -0.16019566 -0.07096717 0.069328904 0.058199644
-0.03297614 0.042527884 -0.07759575 -0.10101936 0.015240777 -0.06095169 0.0120169865 -0.003605885
0.08277263 -0.047966897 0.090340145 0.011661208 -0.041092396 0.011112996 -0.05662328 0.00021453355
-0.06572933 -0.014453253 0.029257324 -0.024523012 -0.09732611 -0.03501818 0.10069507 0.052096277
-0.05848187 0.034861397 0.044163384 0.093624055 0.1132246 -0.0715443 0.0053073717 0.07704489
0.010532572 -0.06260698 -0.052096184 -0.045455832 -0.12477766 -0.13090369 0.124371395 -0.010464284
0.0926561 -0.11671361 0.07325704 0.04972993 -0.1276851 -0.032175038 0.046847638 -0.074672244
0.06152552 0.07922499 -0.09933363 -0.004771215 0.087326065 -0.01618216 -0.08175923 0.038605757
-0.11238786 0.020689853 -0.060384084 0.037475564 -0.07339562 -0.022173716 -0.059221987 0.04924324
-0.1304526 -0.014846638 -0.012119691 -0.05568631 0.041835252 0.10890036 0.011088107 -0.05343868
0.03845488 -0.043648697 0.003491468 0.0851941 -0.0427796 0.12670179 0.11255207 0.032329015
-0.034048136 -0.01733512 0.087543696 0.022292754 -0.11220631 -0.107083306 0.040812824 0.030630628
0.07595918 0.1036828 0.031181796 0.094562285 0.10324831 -0.074277736 0.13496782 -0.06171483
-0.07407423 -0.015061681 -0.07035359 0.028955229 0.0020938145 0.023742568 -0.07449174 0.06477768
0.10175073 0.010592197 0.083965816 -0.07509812 0.051798128 -0.05950444 -0.045945894 -0.023616554
-0.0059366277 0.10522511 0.0047787437 0.13221698 0.02785868 -0.034990825 -0.049534146 -0.0009858456
-0.09368416 0.047001556 0.113609284 0.08018598 0.06609433 0.13908435 0.012225727 -0.0059322487
0.07189982 -0.02871517 0.012687058 0.048012905 -0.041680735 -0.049737196 -0.0963346 -0.11004089
0.010030261 0.041292556 -0.058797415 -0.16480608 -0.033873517 -0.10428242 -0.19759086 -0.049284093
-0.019258516 -0.020260839 0.08403432 0.07607903 -0.04985208 0.07481843 0.007841096 -0.15032205
0.115364924 0.10248715 0.035406627 0.041996837 0.07594363 -0.042282734 0.058761675 -0.06819973
-0.11041123 -0.08678433 0.002032234 0.1278566 -0.098434374 -0.05828421 0.089319825 0.05097932
0.06123214 0.047135945 -0.0877558 0.040148504 -0.14417373 -0.16293202 -0.07631758 0.008700442
-0.036364015 -0.040654916 0.13392866 -0.047848064 0.036173783 0.1146933 -0.11147573 0.07237142
0.12886539 -0.026101029 0.094070725 -0.15974833 -0.092625625 -0.05416915 0.00095896976 -0.006671013
00000000: e613 18be c10f c83d eb95 5b3d ac11 acbd
00000010: 5de6 633c e5c1 db3d e21a b8bd efec 06bb
00000020: 11fe 28bc 04e2 233d fc75 d63d c3e5 c3bd
00000030: 7198 13be 1824 b0bd c6ee 31bc a912 663d
00000040: 7762 e0bd 9b9e 43bd 8849 0abb 9b82 56bc
00000050: 773a 093d dbe7 5fbc c98c 05be 0834 41be
00000060: 3ec1 85bd 7e58 f33c 3fa1 8d3d 6bee 09be
00000070: 3e10 103e 2f1e b23d 9690 e9bd 36cd 353d
00000080: d0c1 1ebc dd1a 073e a3ba a2bc 81c6 0ebd
00000090: 55ab 2a3d 39b2 45be 4e76 d13d 4e3d 08be
000000a0: 8cc8 97bd 6d8c 01bd df9f 24be c5ee d1bc
000000b0: 3574 98bd 1777 aabd 235d 8b3c 5422 1cbe
000000c0: bf79 343d 5c7a aebc 982a 893d 966c 08bc
000000d0: 3d1e 0dbe 8f05 99bb 5b8b f6bd 9aeb c03d
000000e0: 5b88 463b 1ed8 02be 4b62 8a3d e345 2bbe
000000f0: 550a 24be 3c57 91bd 50fc 8d3d c062 6e3d
00000100: fd11 07bd b831 2e3d 85ea 9ebd 3de3 cebd
00000110: 74b4 793c 7ba8 79bd e5e2 443c b650 6cbb
00000120: b284 a93d f078 44bd 4104 b93d a70e 3f3c
00000130: 8050 28bd 4913 363c d0ed 67bd 69f4 6039
00000140: 199d 86bd 56cd 6cbc 0ead ef3c 7ce4 c8bc
00000150: e952 c7bd 396f 0fbd 3839 ce3d e862 553d
00000160: af8a 6fbd d3ca 0e3d aae4 343d f8bd bf3d
00000170: 4de2 e73d d185 92bd 76e9 ad3b b6c9 9d3d
00000180: cf90 2c3c 1738 80bd cf62 55bd e52f 3abd
00000190: 6e8b ffbd 9e0b 06be 6eb6 fe3d 6372 2bbc
000001a0: 7bc2 bd3d 8c07 efbd c907 963d 9cb1 4b3d
000001b0: e2bf 02be f9c9 03bd 4fe3 3f3d c3ed 98bd
000001c0: 2f02 7c3d b640 a23d 6e6f cbbd da57 9cbb
000001d0: 02d8 b23d 7390 84bc 6271 a7bd 1221 1e3d
000001e0: 9b2b e6bd c47d a93c 4d55 77bd fa7f 193d
000001f0: 7150 96bd a7a5 b5bc c192 72bd 48b3 493d
00000200: 5e95 05be 503f 73bc ab91 46bc 5417 64bd
00000210: 715b 2b3d 2707 df3d e4aa 353c 84e2 5abd
00000220: dd82 1d3d fac8 32bd 1dd1 643b 3f7a ae3d
00000230: a939 2fbd 1dbe 013e b381 e63d 6e6b 043d
00000240: 0f76 0bbd 6202 8ebc 1c4a b33d 4b9f b63c
00000250: 6ccc e5bd 7e4e dbbd 592b 273d 15ed fa3c
00000260: 7d90 9b3d a657 d43d f770 ff3c dfa9 c13d
00000270: da73 d33d ed1e 98bd 0135 0a3e b1c8 7cbd
00000280: 3bb4 97bd 45c5 76bc 8b15 90bd 8433 ed3c
00000290: 6138 093b c67f c23c 208f 98bd 29aa 843d
000002a0: b062 d03d e58a 2d3c 45f6 ab3d 0bcd 99bd
000002b0: 462a 543d edba 73bd c331 3cbd 8177 c1bc
000002c0: 0b88 c2bb 4380 d73d 0297 9c3b e363 073e
000002d0: e337 e43c 8a52 0fbd 51e4 4abd 7d37 81ba
000002e0: 7bdd bfbd b484 403d fcab e83d 8c38 a43d
000002f0: 775c 873d 216c 0e3e 6a4e 483c 4f63 c2bb
00000300: 3640 933d 143c ebbc 61dd 4f3c 2ea9 443d
00000310: 6bb9 2abd 3bb9 4bbd 134b c5bd 1e5d e1bd
00000320: f755 243c 6222 293d 8fd5 70bd edc2 28be
00000330: f5be 0abd 0592 d5bd 4255 4abe 1ede 49bd
00000340: 09c4 9dbc 0ffa a5bc 301a ac3d 53cf 9b3d
00000350: b231 4cbd 683a 993d f177 003c 06ee 19be
00000360: 7244 ec3d c8e4 d13d 8a06 113d e004 2c3d
00000370: 5588 9b3d a930 2dbd 15b0 703d 4dac 8bbd
00000380: 481f e2bd fcbb b1bd 3b2f 053b d7ec 023e
00000390: f697 c9bd 6cbb 6ebd 50ed b63d b1cf 503d
000003a0: 8dce 7a3d 9f11 413d 50b9 b3bd c272 243d
000003b0: 47a2 13be a7d7 26be 644c 9cbd 4c8c 0e3c
000003c0: 6ff2 14bd c585 26bd 9824 093e 55fc 43bd
000003d0: f62a 143d 52e4 ea3d 634d e4bd 7837 943d
000003e0: 4af5 033e d3d1 d5bc 27a8 c03d 1195 23be
000003f0: 81b2 bdbd 78e0 5dbd 5f63 7b3a 8398 dabb

onnx::GRU_274 f4 [1, 192, 64]
0.08867429 -0.10217759 -0.045686908 -0.19669975 0.11425173 -0.112736076 -0.035100676 -0.12183918
0.075057276 -0.07430689 0.027027834 0.2019096 0.0439189 0.10911598 -0.33332968 -0.10547478
-0.053974878 0.073116936 -0.07853053 0.06137176 -0.18102033 0.13194793 0.088068716 -0.334271
-0.19386771 -0.101607196 0.07895345 0.36080286 0.05067705 0.0016876062 0.15114611 -0.015085706
0.13548213 -0.084928274 0.105225034 -0.2058273 -0.022998637 -0.14402135 0.085450694 -0.41810712
-0.0016068019 0.080998115 -0.082069024 0.015967056 0.12722787 0.008583635 -0.25296497 -0.1009264
-0.05039367 0.11839341 0.088217035 -0.08839427 0.10852847 -0.17223628 0.059235163 0.24282533
0.07202919 0.26286846 0.0094900215 -0.1116682 0.068352856 0.011655038 0.029386144 0.056444395
0.0940345 -0.07037173 -0.023294985 -0.03423505 0.16080809 0.040491357 0.009807741 0.07295432
-0.0026987072 0.061746005 0.07844726 0.05120557 0.12385759 0.085957296 -0.07694602 -0.2881075
0.11948812 -0.13226989 -0.13601749 0.08813652 -0.080013864 -0.055742394 0.019671889 -0.10012107
0.19911894 0.048038624 0.012911355 0.13017066 -0.07522842 -0.019138316 -0.1985913 0.00047943072
-0.1270601 0.22328003 -0.08637252 0.22980002 -0.018009385 0.18739808 -0.15977481 -0.2686041
-0.0014757062 0.105500564 0.09243489 -0.1490257 -0.051334467 0.045031615 -0.008188641 0.0082590245
0.17369764 0.04627565 -0.004372933 0.05731605 0.1612569 -0.04684379 0.15290967 -0.010225366
-0.06553939 0.246552 -0.14560819 0.22762403 0.06648561 0.09763778 0.087118514 0.09982686
-0.04863814 -0.048319265 -0.09070027 0.08134014 -0.15640429 0.15363723 0.09874841 -0.06261543
-0.14023475 -0.08377985 0.054079518 -0.0673672 -0.29324806 -0.04113158 0.13947342 -0.00803264
-0.08928226 0.11055066 0.07957787 -0.07332716 -0.0713061 0.018267417 0.006807248 -0.021521045
0.04272571 0.037748292 -0.11791423 -0.021848902 -0.03326132 0.026964441 0.14339669 -0.01814102
-0.17383456 -0.09950509 0.103801444 0.09899424 -0.064286485 0.16828291 -0.018674864 0.08327392
-0.08700975 0.09222636 -0.004483941 -0.091707096 -0.07506998 0.14336726 -0.05702438 -0.04969333
-0.03471812 -0.10108086 -0.008199792 0.1386493 -0.06968602 -0.16355914 0.0024198818 -0.10038633
-0.029709687 -0.028321164 -0.09516485 0.034966543 -0.15226197 -0.022647493 -0.06400337 0.06914752
0.27538675 0.094752714 0.11822987 0.02481293 -0.11852438 -0.05468428 -0.038287476 -0.033189557
0.02223201 -0.09775489 -0.100753725 0.09730272 -0.059011754 0.008708944 -0.03796262 0.087161936
-0.18650517 0.03646616 0.16289268 -0.08958156 0.006330148 0.039691005 0.09221331 0.111184224
0.052905466 -0.10098312 -0.04539144 0.16413063 -0.1723463 -0.012451612 0.10134989 -0.14081179
-0.043767203 -0.1449417 -0.13541426 0.059829023 -0.03167783 -0.14100918 0.013970361 0.002708812
0.017046256 0.13462909 -0.056242723 0.07745193 -0.0404937 0.043608326 -0.002910967 -0.026394924
-0.014162671 0.16133979 0.19345945 -0.16283691 -0.21312124 -0.04856933 0.0826288 0.08981298
0.046694577 0.026319724 0.007209652 0.16609733 -0.22973736 0.050551414 -0.2301853 -0.040416263
00000000: de9a b53d 7c42 d1bd 3222 3bbd a96b 49be
00000010: d0fc e93d 2ce2 e6bd bac5 0fbd d286 f9bd
00000020: a1b7 993d 362e 98bd 7a69 dd3c 64c1 4e3e
00000030: 4ee4 333d 3378 df3d 30aa aabe 2903 d8bd
00000040: c314 5dbd 55be 953d 9dd4 a0bd f460 7b3d
00000050: 655d 39be 5c1d 073e 5f5d b43d 9225 abbe
00000060: 4285 46be 6f17 d0bd 59b2 a13d 27bb b83e
00000070: bd92 4f3d ab32 dd3a 0cc6 1a3e 092a 77bc
00000080: d4bb 0a3e e0ee adbd 3980 d73d 64c4 52be
00000090: a367 bcbc 557a 13be c600 af3d 2312 d6be
000000a0: 539b d2ba 57e2 a53d ce13 a8bd 58cd 823c
000000b0: 0648 023e 60a2 0c3c a084 81be 80b2 cebd
000000c0: 9869 4ebd 3f78 f23d 22ab b43d 0e08 b5bd
000000d0: 2d44 de3d b55e 30be 92a0 723d 34a7 783e
000000e0: 0a84 933d b296 863e 097c 1b3c 4cb2 e4bd
000000f0: 95fc 8b3d c6f4 3e3c 36bb f03c 3d32 673d
00000100: 2995 c03d 0e1f 90bd 20d5 bebc 0d3a 0cbd
00000110: e0aa 243e 44da 253d a6b0 203c 1369 953d
00000120: cbdc 30bb 61e9 7c3d f5a8 a03d efbc 513d
00000130: 0ca9 fd3d 610a b03d e095 9dbd d482 93be
00000140: 30b6 f43d c271 07be 2b48 0bbe eb80 b43d
00000150: 4fde a3bd 2352 64bd f126 a13c 470c cdbd
00000160: d6e5 4b3e 26c4 443d 268a 533c 754b 053e
00000170: 5c11 9abd f5c7 9cbc 855b 4bbe 1a5c fb39
00000180: 0b1c 02be 85a3 643e 13e4 b0bd b250 6b3e
00000190: 6b88 93bc 48e5 3f3e 029c 23be 7a86 89be
000001a0: 7c6c c1ba ae10 d83d 814e bd3d 319a 18be
000001b0: 1744 52bd 1273 383d a629 06bc dc50 073c
000001c0: cbdd 313e 898b 3d3d d24a 8fbb 3cc4 6a3d
000001d0: 8720 253e 46df 3fbd 5a94 1c3e 4b88 27bc
000001e0: 8439 86bd 2178 7c3e 501a 15be 4616 693e
000001f0: 9c29 883d 51f6 c73d 316b b23d 0672 cc3d
00000200: c938 47bd 6cea 45bd 10c1 b9bd a995 a63d
00000210: 7228 20be 1453 1d3e 9b3c ca3d 853c 80bd
00000220: b399 0fbe c594 abbd 7c82 5d3d d1f7 89bd
00000230: 9c24 96be 9679 28bd 1fd2 0e3e 569b 03bc
00000240: 9ed9 b6bd 6268 e23d b9f9 a23d 8d2c 96bd
00000250: ef08 92bd 8da5 953c 560f df3b e74c b0bc
00000260: 2701 2f3d f49d 1a3d 047d f1bd 78fc b2bc
00000270: 063d 08bd 88e4 dc3c 95d6 123e 7a9c 94bc
00000280: b001 32be 53c9 cbbd da95 d43d 7ebd ca3d
00000290: a2a8 83bd 5b52 2c3e 07fc 98bc 848b aa3d
000002a0: 2b32 b2bd 2de1 bc3d 06ee 92bb eed0 bbbd
000002b0: 4abe 99bd dece 123e 6592 69bd 3c8b 4bbd
000002c0: 9634 0ebd 7b03 cfbd 6c58 06bc 15fa 0d3e
000002d0: 8bb7 8ebd 0c7c 27be e196 1e3b 5997 cdbd
000002e0: bb61 f3bc c901 e8bc cae5 c2bd 1439 0f3d
000002f0: 90ea 1bbe 3c87 b9bc 3314 83bd 379d 8d3d
00000300: 7eff 8c3e b60d c23d 8122 f23d 7c44 cb3c
00000310: e9bc f2bd a0fc 5fbd 54d3 1cbd c6f1 07bd
00000320: e71f b63c b733 c8bd f857 cebd a646 c73d
00000330: 4fb6 71bd f5af 0e3c b17e 1bbd f581 b23d
00000340: 36fb 3ebe 8a5d 153d 57cd 263e 8976 b7bd
00000350: 216d cf3b 0993 223d 55da bc3d 8eb4 e33d
00000360: 67b3 583d 3dd0 cebd 60ec 39bd dc11 283e
00000370: 8c7b 30be d901 4cbc 8890 cf3d f730 10be
00000380: 3d45 33bd 996b 14be 09aa 0abe 470f 753d
00000390: 9dc0 01bd b664 10be f1e3 643c 5386 313b
000003a0: 97a4 8b3c 35dc 093e c55e 66bd 1e9f 9e3d
000003b0: b9dc 25bd a59e 323d ecc5 3ebb 2b3a d8bc
000003c0: 8c0a 68bc 4236 253e 3c1a 463e b8be 26be
000003d0: 743c 5abe a2f0 46bd 4a39 a93d deef b73d
000003e0: d042 3f3d 769c d73c f23e ec3b 6b15 2a3e
000003f0: 4540 6bbe 000f 4f3d b2b5 6bbe 868b 25bd

onnx::GRU_275 f4 [1, 192, 64]
-0.13411908 -0.11861278 -0.10130034 -0.0184902 0.1713322 -0.1194012 -0.014915779 0.15580776
0.038110115 0.085905686 0.0035505434 -0.009204941 -0.12203136 -0.13282128 0.16935067 -0.15376222
0.25317782 0.025082557 -0.07251494 0.20762008 0.13974918 0.090797834 -0.11342489 -0.09098298
0.109875046 0.13486949 -0.013063654 -0.1013226 -0.015275759 -0.15578584 0.10595367 0.06240621
-0.10900588 0.15986285 -0.21910866 0.086340986 -0.09278091 0.17359582 -0.050405562 0.08285605
-0.15809713 0.07017095 0.09144477 0.03052484 0.19474223 -0.11084959 0.054446585 -0.11072741
0.06462494 -0.007575557 0.009645726 0.06897535 -0.009992664 -0.14116588 -0.058625504 0.26273146
0.04892406 0.038202945 0.13360038 -0.072815284 0.059940584 -0.03678627 -0.028456185 -0.0181437
-0.2691214 0.17804854 0.11759319 0.15297246 -0.03594122 -0.003800636 0.00088304037 0.040280446
-0.14088014 -0.14375283 0.064216666 0.09571071 -0.13228358 -0.040543534 -0.036507767 0.09667191
0.05285555 0.05844248 -0.01235791 -0.06491098 -0.11558251 -0.093281664 0.08075567 0.11234828
-0.12992078 0.097881034 0.24416094 -0.08319447 -0.13521077 -0.15345271 -0.14717485 -0.23105939
0.2360942 -0.04201896 -0.06699437 0.041001823 0.15062211 -0.13573243 -0.18775411 -0.19801798
0.03907521 0.03674159 -0.020327896 0.11991812 -0.15048388 0.10073001 -0.05830101 -0.1170855
0.13604301 0.18257032 -0.16356334 -0.04819614 0.17043886 -0.12680157 0.025271036 -0.076429
-0.082619935 -0.013088231 -0.10926123 -0.04704937 -0.114430614 -0.08456981 -0.09257049 -0.09364212
-0.06272379 0.0067374553 -0.0011456915 0.0055241887 0.070116945 0.06255305 -0.07515432 0.070826486
0.04819581 -0.08054232 -0.014794458 -0.047892082 0.081524804 0.048473652 -0.06312978 -0.060599677
-0.03954174 0.07528971 -0.06814639 -0.044603534 0.120087765 0.007519834 -0.14874539 -0.15288432
0.07353293 0.029085312 -0.009276374 0.084415674 -0.015271815 -0.07423068 0.08830512 0.17828311
0.06801232 -0.05066621 0.06135353 -0.018410029 0.036359463 0.12281694 0.10756156 0.0308945
-0.06314153 -0.094170675 -0.048005838 -0.09756926 -0.049371563 0.13304286 -0.091056675 0.0676506
0.030801168 0.05463927 -0.13379516 0.021765146 -0.19892661 -0.0283328 0.026156602 0.10332152
0.14567862 0.05187394 -0.04483783 0.0029194981 -0.071137115 0.001766891 0.038429208 0.10438879
0.13647419 0.043230504 0.07622716 0.0083074765 0.04583552 0.0519065 -0.034656096 0.15068579
0.06245523 0.1709255 0.01753587 -0.112325095 0.019025432 -0.16180515 0.08324721 -0.1262452
0.12158982 -0.040611017 0.09977602 -0.0055711763 0.017029528 -0.010542573 0.0435885 -0.14569585
0.035990987 0.06251351 0.050225113 -0.065647736 0.16300921 -0.07724708 -0.007441127 0.0054340204
-0.09990694 0.09302046 -0.010023935 -0.0038063128 0.06411116 0.021560026 0.027104506 0.08610985
0.06902898 -0.16137278 0.07833834 -0.12943946 -0.012088479 0.041880496 0.1476485 -0.112314634
-0.09122596 -0.16039898 0.012243535 0.15901211 0.11501323 -0.016684335 -0.015555238 0.09269957
0.14186971 -0.17738518 -0.052384097 0.023073852 0.06518954 -0.054948673 0.19224262 -0.0128430985
00000000: 8356 09be 42eb f2bd 8d76 cfbd c378 97bc
00000010: b571 2f3e 9e88 f4bd 5061 74bc 128c 1f3e
00000020: 5a19 1c3d 52ef af3d 3cb0 683b 52d0 16bc
00000030: 94eb f9bd 4d02 08be 436a 2d3e d873 1dbe
00000040: 86a0 813e ef79 cd3c b682 94bd 5c9a 543e
00000050: 691a 0f3e 37f4 b93d 4f4b e8bd 4955 babd
00000060: 2b06 e13d 3a1b 0a3e f008 56bc 3982 cfbd
00000070: 2d47 7abc 5386 1fbe 3dfe d83d a79d 7f3d
00000080: 7a3e dfbd 16b3 233e 055e 60be 8bd3 b03d
00000090: eb03 bebd 1ac3 313e 1076 4ebd 6fb0 a93d
000000a0: 37e4 21be c9b5 8f3d 6547 bb3d 3b0f fa3c
000000b0: 826a 473e 1c05 e3bd 6203 5f3d 0dc5 e2bd
000000c0: 155a 843d 613c f8bb 1b09 1e3c f342 8d3d
000000d0: 45b8 23bc ca8d 10be 4c21 70bd bd84 863e
000000e0: 9864 483d b17a 1c3d 8ace 083e 2e20 95bd
000000f0: 4284 753d 33ad 16bd f21c e9bc 19a2 94bc
00000100: 48ca 89be 5b52 363e b3d4 f03d d0a4 1c3e
00000110: 1a37 13bd 1714 79bb d67b 673a 1cfd 243d
00000120: e242 10be f133 13be 0784 833d fa03 c43d
00000130: 5975 07be fa10 26bd 2b89 15bd ecfb c53d
00000140: 107f 583d 6261 6f3d d578 4abc 0cf0 84bd
00000150: 86b6 ecbd 750a bfbd 3b63 a53d db16 e63d
00000160: f409 05be da75 c83d 5305 7a3e dd61 aabd
00000170: b174 0abe b522 1dbe 01b5 16be d59a 6cbe
00000180: aec2 713e 131c 2cbd 5834 89bd 87f1 273d
00000190: af3c 1a3e 71fd 0abe 9d42 40be 3ac5 4abe
000001a0: 540d 203d 597e 163d b086 a6bc a297 f53d
000001b0: 7218 1abe 894b ce3d 0acd 6ebd 86ca efbd
000001c0: dc4e 0b3e b7f3 3a3e 267d 27be 5169 45bd
000001d0: 8687 2e3e 45d8 01be 3405 cf3c cf86 9cbd
000001e0: a434 a9bd 0570 56bc 5ac4 dfbd d7b6 40bd
000001f0: 995a eabd f032 adbd 9995 bdbd 71c7 bfbd
00000200: 5575 80bd dfc5 dc3b 072b 96ba 4104 b53b
00000210: 7999 8f3d d01b 803d 82ea 99bd 7a0d 913d
00000220: f868 453d 5ff3 a4bd 7464 72bc 7d2a 44bd
00000230: 7af6 a63d 4f8c 463d 304a 81bd 5e37 78bd
00000240: 85f6 21bd 7e31 9a3d 5690 8bbd 32b2 36bd
00000250: 93f0 f53d f168 f63b b650 18be b58d 1cbe
00000260: 6f98 963d 5244 ee3c effb 17bc 20e2 ac3d
00000270: a236 7abc 4106 98bd 51d9 b43d d98f 363e
00000280: 0b4a 8b3d 5f87 4fbd d74d 7b3d a1d0 96bc
00000290: a9ed 143d 7387 fb3d 3c49 dc3d 7616 fd3c
000002a0: 5950 81bd 8edc c0bd c5a1 44bd 64d2 c7bd
000002b0: d639 4abd 633c 083e ec7b babd 668c 8a3d
000002c0: bb52 fc3c 6dcd 5f3d 9901 09be d24c b23c
000002d0: 6bb3 4bbe 301a e8bc 5f46 d63c 3c9a d33d
000002e0: c72c 153e c579 543d dfa7 37bd 0d55 3f3b
000002f0: 56b0 91bd 0697 e73a f267 1d3d cac9 d53d
00000300: e4bf 0b3e 7812 313d fc1c 9c3d 151c 083c
00000310: 07be 3b3d e99b 543d 8df3 0dbd 604d 1a3e
00000320: 0ed1 7f3d 1807 2f3e 63a7 8f3c b30a e6bd
00000330: 39db 9b3c 40b0 25be 837d aa3d 6c46 01be
00000340: 1504 f93d bd57 26bd 5f57 cc3d 6a8e b6bb
00000350: 8281 8b3c c2ba 2cbc db89 323d 4b31 15be
00000360: 496b 133d 1507 803d d9b8 4d3d 5272 86bd
00000370: e3eb 263e b833 9ebd b3d4 f3bb de0f b23b
00000380: 029c ccbd 8381 be3d 6e3b 24bc 5573 79bb
00000390: b64c 833d a79e b03c 450a de3c 5c5a b03d
000003a0: 115f 8d3d e83e 25be da6f a03d c78b 04be
000003b0: c10e 46bc e28a 2b3d 2b31 173e 3705 e6bd
000003c0: add4 babd a13f 24be 1c99 483c 12d4 223e
000003d0: 0e8c eb3d 96ad 88bc 66db 7ebc 46d9 bd3d
000003e0: 4b46 113e 76a4 35be b590 56bd 6005 bd3c
000003f0: 1882 853d dc11 61bd 40db 443e dc6b 52bc

onnx::GRU_276 f4 [1, 384]
-0.18239798 0.0841719 0.03569485 -0.027893463 0.025651293 -0.18204533 0.12184055 0.16849287
0.04565421 -0.02404434 -0.10557687 0.033685975 -0.23976532 -0.12852904 0.18581381 0.07542159
-0.05240675 0.08543681 -0.11837455 -0.14075755 0.07190419 0.09383121 0.23799233 -0.14604625
0.20321064 -0.0737974 -0.06912893 0.035409536 -0.080262154 -0.01210436 -0.10543646 -0.07744848
0.07134566 0.0016620044 0.059459217 -0.05977792 -0.005235556 0.03665715 0.04474839 0.060265053
-0.06660083 -0.00043003183 0.08042244 -0.15154113 -0.018685821 0.20267972 -0.09881371 -0.14037092
-0.08703159 0.08927896 -0.21252033 -0.0015514798 -0.20545167 -0.19506736 -0.17889078 -0.15530458
-0.035187017 0.030673703 -0.033546235 -0.14158623 -0.09940001 -0.008917824 -0.012637714 -0.11247701
-0.016869903 -0.0036602626 -0.01843578 -0.008314348 0.089632384 0.016615236 0.025426101 0.069077946
0.05342309 -0.02238917 -0.03225252 0.094918296 -0.001034925 0.05321056 0.18136005 -0.07808454
-0.03356177 -0.11757898 0.010099317 0.11520063 0.08264503 -0.043969054 0.09950933 0.092675656
-0.09324114 0.03281166 -0.026065122 0.022962071 -0.056961272 0.058760136 0.06744989 -0.022581441
0.010369467 -0.09361048 -0.12741762 -0.012196644 -0.08953135 -0.016783003 0.114458494 0.06084484
-0.06747455 -0.012196487 -0.047719747 -0.04083447 -0.08321774 0.077120095 -0.028836709 -0.055813458
0.004789075 0.018129442 0.09598865 0.05666583 0.09444575 -0.07674251 0.03219854 -0.14208846
-0.021589642 -0.12418207 0.018097054 0.11274657 -0.11873059 -0.039392117 0.08476279 -0.09324324
0.018845797 -0.042268444 -0.02276521 -0.110867724 0.048115566 -0.07818246 0.108668275 -0.019402854
0.02787108 -0.11056462 -0.02514709 0.07212121 -0.037030898 -0.119264655 -0.03780681 -0.06577907
-0.007082396 -0.060357425 0.014049652 -0.09285536 -0.063897 0.025016641 -0.048449665 0.037092246
-0.07862286 -0.019636596 0.092642084 -0.06889332 -0.10331752 -0.068858095 -0.07254527 -0.035088457
0.10493169 -0.03917281 0.10585628 0.08877233 0.062392436 0.05839408 0.047666118 -0.10109283
0.07253519 -0.04923495 -0.10884445 0.09975257 -0.11023308 0.003915227 -0.12127762 -0.11095511
0.056928333 0.025351098 0.0951791 -0.09011506 -0.07750606 -0.046889413 0.09202686 0.082059056
-0.123535715 -0.01484384 -0.059930306 0.03132407 -0.056963634 -0.102186985 -0.08994903 -0.047931757
-0.02302914 0.107421674 -0.032483336 0.033951286 0.09534236 -0.15919997 0.11249135 0.12838908
-0.0037743782 -0.022937356 0.07823664 -0.054258786 -0.17555559 -0.11269223 0.25673664 -0.10693089
-0.047157846 -0.13505627 0.02595992 -0.03483828 -0.098045066 -0.05004362 0.17166555 0.084094726
0.06929233 -0.24656211 -0.2799054 -0.14398195 0.033907484 -0.030201508 -0.16908284 0.069131024
0.015083811 0.05750976 -0.15723847 -0.20821112 -0.16662323 -0.13919887 -0.00830043 0.04093813
-0.085199594 -0.03819372 0.083228976 -0.0021559738 0.04544048 0.05331785 0.08218729 -0.13088228
-0.1416212 -0.06576253 -0.10231516 0.03697935 -0.12304776 -0.108928256 -0.1241746 -0.12450179
-0.037405644 -0.11264789 -0.03774266 0.01168939 -0.12524779 -0.027690763 -0.014878195 -0.04844986
00000000: 89c6 3abe 5162 ac3d c334 123d d580 e4bc
00000010: a922 d23c 176a 3abe 8a87 f93d 6589 2c3e
00000020: e9ff 3a3d a3f8 c4bc b038 d8bd 4efa 093d
00000030: 0a85 75be 1e9d 03be fa45 3e3e a276 9a3d
00000040: 76a8 56bd 7ff9 ae3d 5b6e f2bd bf22 10be
00000050: 8142 933d 942a c03d 43b4 733e 268d 15be
00000060: 7316 503e 1723 97bd 7893 8dbd 9709 113d
00000070: 7c60 a4bd 5e51 46bc 12ef d7bd 4f9d 9ebd
00000080: ac1d 923d 9dd7 d93a 828b 733d b1d9 74bd
00000090: 078f abbb cf25 163d 164a 373d 7dd8 763d
000000a0: 0466 88bd e575 e1b9 85b4 a43d 992d 1bbe
000000b0: 0213 99bc 468b 4f3e d85e cabd 65bd 0fbe
000000c0: 9e3d b2bd e3d7 b63d ee9e 59be 065b cbba
000000d0: ec61 52be bdbf 47be 252f 37be 2a08 1fbe
000000e0: 4320 10bd 6b47 fb3c c767 09bd fbfb 10be
000000f0: 3c92 cbbd 111c 12bc 6a0e 4fbc 595a e6bd
00000100: c032 8abc 04e1 6fbb a206 97bc e738 08bc
00000110: 2f91 b73d ad1c 883c 664a d03c bd78 8d3d
00000120: 2cd2 5a3d 7e69 b7bc 381b 04bd 8664 c23d
00000130: 52a6 87ba 51f3 593d 73b6 393e caea 9fbd
00000140: 1178 09bd 40cd f0bd 9b77 253c 4fee eb3d
00000150: cc41 a93d e518 34bd 8ccb cb3d bccc bd3d
00000160: 36f5 bebd 8565 063d 8686 d5bc f41a bc3c
00000170: 3950 69bd 78ae 703d 2b23 8a3d b7fc b8bc
00000180: b2e4 293c dab6 bfbd c479 02be 6fd4 47bc
00000190: 365c b7bd 827c 89bc 3769 ea3d 7038 793d
000001a0: 1930 8abd c6d3 47bc c875 43bd 0c42 27bd
000001b0: 106e aabd 24f1 9d3d f63a ecbc a79c 64bd
000001c0: aced 9c3b 3284 943c b395 c43d 6e1a 683d
000001d0: c66c c13d 2d2b 9dbd 9ee2 033d a37f 11be
000001e0: c3dc b0bc 2b53 febd 4640 943c ace7 e63d
000001f0: 0629 f3bd a159 21bd 1d98 ad3d 50f6 bebd
00000200: 8062 9a3c ad21 2dbd 1b7e babc 9e0e e3bd
00000210: d414 453d 201e a0bd 798d de3d bcf2 9ebc
00000220: e451 e43c b46f e2bd 4501 cebc 49b4 933d
00000230: b6ad 17bd 0741 f4bd 50db 1abd 2db7 86bd
00000240: 7213 e8bb 5939 77bd 8330 663c f32a bebd
00000250: 6edc 82bd b3ef cc3c 2873 46bd 0aee 173d
00000260: 0605 a1bd eddc a0bc 22bb bd3d f117 8dbd
00000270: 2398 d3bd 7905 8dbd 9d92 94bd eab8 0fbd
00000280: 6de6 d63d ab73 20bd 2dcb d83d 44ce b53d
00000290: 368f 7f3d a12e 6f3d 8c3d 433d c209 cfbd
000002a0: 548d 943d 96aa 49bd d7e9 debd 134b cc3d
000002b0: e2c1 e1bd 4e4b 803b 6760 f8bd 6f3c e3bd
000002c0: af2d 693d 1bad cf3c 43ed c23d 3f8e b8bd
000002d0: 7fbb 9ebd 1d0f 40bd 9478 bc3d 940e a83d
000002e0: 4b00 fdbd 9433 73bc 7b79 75bd ab4d 003d
000002f0: b352 69bd 6947 d1bd 3237 b8bd 1754 44bd
00000300: 9ba7 bcbc e5ff db3d 3f0d 05bd 8110 0b3d
00000310: db42 c33d 5105 23be dd61 e63d 6d78 033e
00000320: 8f5b 77bb 1fe7 bbbc 883a a03d 763e 5ebd
00000330: d8c4 33be 2fcb e6bd fc72 833e 95fe dabd
00000340: 9628 41bd 314c 0abe e6a9 d43c 96b2 0ebd
00000350: dacb c8bd 8afa 4cbd 18c9 2f3e db39 ac3d
00000360: 23e9 8d3d c77a 7cbe c34f 8fbe 0170 13be
00000370: 93e2 0a3d 2769 f7bc 0d24 2dbe 9194 8d3d
00000380: 1722 773c 5b8f 6b3d 1f03 21be 4c35 55be
00000390: 489f 2abe 268a 0ebe 87fe 07bc beae 273d
000003a0: 207d aebd 0571 1cbd f473 aa3d 3d4b 0dbb
000003b0: cc1f 3a3d d163 5a3d cf51 a83d 0106 06be
000003c0: 2605 11be 81ae 86bd 9c8a d1bd a977 173d
000003d0: 7700 fcbd c715 dfbd 414f febd cbfa febd
000003e0: a936 19bd f0b3 e6bd 0c98 1abd db84 3f3c
000003f0: f540 00be bdd7 e2bc acc3 73bc 5c73 46bd

onnx::GRU_294 f4 [1, 192, 64]
-0.34509677 -0.074336864 0.15666384 -0.35708958 0.070620745 -0.033954367 -0.19814144 -0.16921102
0.1551376 0.06503588 -0.071676485 -0.21316436 0.16882591 -0.017370777 0.15337975 -0.112960726
-0.008572622 -0.017710555 -0.30069786 -0.20411997 -0.06888419 0.094098225 -0.3492409 0.17866434
0.07475583 0.1025114 -0.2289465 -0.36187774 0.14038222 -0.25286564 0.17657034 0.16137658
0.053246263 -0.03012803 -0.012626629 -0.1262107 0.05393356 -0.12715426 0.21880727 0.029420316
-0.120482974 -0.18389066 0.012273259 -0.0034311577 0.12848672 0.17344819 0.048584394 -0.07438227
0.049716044 -0.028723614 -0.025048377 -0.14721197 -0.14619903 -0.052844264 0.18014708 0.10343662
-0.2248175 -0.064830914 0.1255874 0.058441572 0.03973887 -0.04520938 -0.06265318 0.1678441
-0.118156455 -0.1256393 -0.019617924 0.018532224 -0.011882654 0.012927377 -0.04278803 0.13164684
0.11314854 0.13682884 -0.13062072 -0.101532824 0.03708511 0.1350763 0.24359946 -0.012247406
0.15016977 -0.090543754 0.07822328 0.14714652 0.2643843 0.1745632 -0.10852905 -0.09438754
0.18991145 0.1696147 -0.1188229 -0.013100684 0.22548865 -0.024913503 0.12889054 0.109801374
-0.102003746 0.08933548 -0.25306123 -0.07186407 -0.1637057 -0.030934498 -0.19227043 0.15581466
-0.19678742 -0.09986498 0.040435623 -0.11644593 0.05186449 -0.26522118 0.2908132 -0.33654475
-0.17016314 -0.16917486 -0.10652786 0.09983879 0.08974339 -0.16306983 -0.050819412 -0.11684337
0.14905241 -0.13487354 0.1573411 -0.19466901 0.09902368 0.088638015 0.21946622 0.14115602
-0.28132075 0.17841098 0.30332938 -0.26628178 -0.024810184 -0.022799855 -0.15699069 -0.25292516
0.39085323 -0.20948748 -0.09361146 0.25619695 -0.20338196 -0.14208029 -0.072837755 -0.14295697
-0.09651198 0.09736129 -0.2747548 -0.21902351 -0.12822412 -0.11464581 -0.2905335 0.27374724
-0.049853634 -0.25007242 -0.19906287 -0.39429885 -0.0364276 -0.085268006 0.03517303 -0.09136822
0.28186804 -0.17034794 0.093170606 0.13305716 0.12531665 -0.16643426 0.23672754 -0.1799768
0.08664039 -0.06431211 -0.097130775 0.036268517 -0.020661768 0.2721436 -0.29833847 0.2150341
0.15532827 0.12412167 0.0018818375 -0.10271095 -0.21109979 0.14558555 0.3073363 0.309332
-0.24746618 0.036763407 -0.16307694 -0.06838726 -0.35413605 -0.16756098 -0.23788518 0.20827088
-0.08566563 -0.12585999 -0.005320395 -0.033254575 0.1170673 0.06926866 -0.024025228 0.08411192
0.13336417 0.18756135 0.044520233 -0.08258433 -0.04964901 0.029749436 0.019303009 -0.16386537
-0.05738197 -0.03810838 -0.051755197 0.063110515 0.0807967 0.0048985197 -0.09226141 -0.14328738
-0.04573511 0.00862483 0.04085419 0.17332056 0.17639616 -0.08577213 -0.037895933 0.18885125
-0.1310691 0.039870422 -0.1034968 -0.03330208 -0.19541217 -0.012640331 0.044144988 0.04000105
-0.11080133 -0.07242956 0.18273161 0.0060099633 0.043117773 -0.028903883 0.13430162 -0.050745707
0.045317158 -0.18490222 -0.016896434 0.04515226 -0.06576235 -0.096615754 -0.0011779397 -0.08835644
-0.02347362 -0.13244149 0.19041045 -0.096450105 0.13165502 0.13888092 0.07315989 0.15682547
00000000: 86b0 b0be ed3d 98bd 7c6c 203e 72d4 b6be
00000010: 9ca1 903d bc13 0bbd 97e5 4abe a745 2dbe
00000020: 64dc 1e3e 8831 853d 1fcb 92bd c247 5abe
00000030: b3e0 2c3e 294d 8ebc 950f 1d3e f457 e7bd
00000040: 2f74 0cbc ba15 91bc 12f5 99be d304 51be
00000050: 2713 8dbd 92b6 c03d b4cf b2be c9f3 363e
00000060: 9619 993d 7ff1 d13d f470 6abe 0a48 b9be
00000070: 5bc0 0f3e 9b77 81be dbce 343e e73f 253e
00000080: c118 5a3d 0fcf f6bc ecdf 4ebc 613d 01be
00000090: 70e9 5c3d ba34 02be 030f 603e e002 f13c
000000a0: c7bf f6bd d54d 3cbe c815 493c 46dd 60bb
000000b0: 0692 033e 679c 313e 6e00 473d bb55 98bd
000000c0: 0da3 4b3d c94d ebbc 4132 cdbc bcbe 16be
000000d0: 33b5 15be 3a73 58bd 7a78 383e 94d6 d33d
000000e0: 8f36 66be 12c6 84bd fc99 003e 6e60 6f3d
000000f0: 3ac5 223d 792d 39bd 4f50 80bd 53df 2b3e
00000100: 03fc f1bd 97a7 00be c5b5 a0bc e4d0 973c
00000110: 77af 42bc 59cd 533c 8042 2fbd 6ece 063e
00000120: 6cba e73d dc1c 0c3e 70c1 05be 71f0 cfbd
00000130: 8ee6 173d 7151 0a3e 2372 793e 58a9 48bc
00000140: 1bc6 193e 016f b9bd 8733 a03d 94ad 163e
00000150: 615d 873e b2c0 323e 7b44 debd 414e c1bd
00000160: 2678 423e 7aaf 2d3e 6c59 f3bd 40a4 56bc
00000170: 7fe6 663e 6717 ccbc e2fb 033e 8bdf e03d
00000180: 57e7 d0bd 85f5 b63d 3e91 81be 782d 93bd
00000190: 78a2 27be 586a fdbc 8ae2 44be e18d 1f3e
000001a0: a482 49be 0386 ccbd d39f 253d 347b eebd
000001b0: dc6f 543d 12cb 87be 78e5 943e 984f acbe
000001c0: 3f3f 2ebe 2d3c 2dbe 472b dabd 4878 cc3d
000001d0: 62cb b73d c7fb 26be 0428 50bd 944b efbd
000001e0: 32a1 183e 4a1c 0abe 061e 213e 5057 47be
000001f0: edcc ca3d d987 b53d c1bb 603e 348b 103e
00000200: 4609 90be 5eb1 363e fd4d 9b3e 1656 88be
00000210: ba3e cbbc c3c6 babc 2bc2 20be 687f 81be
00000220: ea1d c83e e383 56be 5db7 bfbd 3f2c 833e
00000230: 5c43 50be 7f7d 11be f62b 95bd 5063 12be
00000240: 13a8 c5bd 5b65 c73d a9ac 8cbe b347 60be
00000250: 2f4d 03be 6ccb eabd cfc0 94be 9928 8c3e
00000260: 5333 4cbd 7e09 80be 23d7 4bbe 8ae1 c9be
00000270: 1b35 15bd fea0 aebd 9811 103d 431f bbbd
00000280: 0251 903e b16f 2ebe 3bd0 be3d 2340 083e
00000290: 0253 003e be6d 2abe b468 723e d74b 38be
000002a0: 8470 b13d 11b6 83bd 80ec c6bd 4c8e 143d
000002b0: de42 a9bc 6856 8b3e d2bf 98be e631 5c3e
000002c0: 600e 1f3e 8133 fe3d fda7 f63a 1e5a d2bd
000002d0: 8b2a 58be 6114 153e 2f5b 9d3e c460 9e3e
000002e0: c667 7dbe 3a95 163d a4fd 26be 9f0e 8cbd
000002f0: 5251 b5be 1b95 2bbe 2c98 73be f644 553e
00000300: 7671 afbd 71e1 00be b556 aebb f335 08bd
00000310: fbc0 ef3d badc 8d3d 8ed0 c4bc df42 ac3d
00000320: 9e90 083e 1510 403e d95a 363d f921 a9bd
00000330: c35c 4bbd 17b5 f33c 5821 9e3c 53cc 27be
00000340: 5b09 6bbd 8817 1cbd 42fd 53bd 1640 813d
00000350: be78 a53d c383 a03b 8df3 bcbd edb9 12be
00000360: bd54 3bbd 294f 0d3c b956 273d f27a 313e
00000370: 32a1 343e 4ca9 afbd c438 1bbd 3962 413e
00000380: fa36 06be 2b4f 233d 21f6 d3bd c367 08bd
00000390: 211a 48be 6419 4fbc 60d1 343d 24d8 233d
000003a0: cfeb e2bd f355 94bd ff1d 3b3e 3aef c43b
000003b0: 439c 303d d6c7 ecbc 5d86 093e bbda 4fbd
000003c0: 7c9e 393d 0257 3dbe 646a 8abc 94f1 383d
000003d0: 69ae 86bd 7bde c5bd 1965 9aba 39f4 b4bd
000003e0: c04b c0bc be9e 07be f5fa 423e a287 c5bd
000003f0: 93d0 063e cd36 0e3e dad4 953d db96 203e
